netD.pt (torch_old, 799428 bytes, 17 tensors)

main.0.weight f8 [12, 3, 4, 4]
000000 4c 25 e7 dd fd 24 73 bf d8 6d da f3 37 54 91 bf
       -0.004673949877948513 -0.016922830828304786
000010 ec b9 1b 78 65 e9 84 bf de 79 59 c0 dc 8b 94 3f
       -0.010210793235697367 0.020064782371599914
000020 f0 3e d4 38 50 f9 93 3f 1c 6b 96 2f f9 06 5b 3f
       0.019505742519924263 0.0016496118026682665
000030 ea 27 ee 5f 47 2c a0 bf 97 f3 a7 89 e4 2d 20 bf
       -0.03158782049202087 -0.00012343802229955174
000040 c6 b4 5d 98 b7 23 78 3f c6 07 83 6a df 9e a9 bf
       0.00589343754641653 -0.05004022765343978
000050 0b 61 d5 62 73 d9 94 3f 1c a4 5a 68 24 e0 7c 3f
       0.02036075869304547 0.007049696175877276
000060 f1 54 02 db 40 6d 74 bf 67 cf 68 e0 1d e7 66 3f
       -0.0049870046060693654 0.002795751908047639
000070 8c 41 dd e5 39 27 81 bf 6d 63 ac 9e b1 1f 9a 3f
       -0.008375599219704787 0.02551152735677269
000080 54 4d db 16 e5 d6 97 bf 4c 1c 8b ca 72 be 89 bf
       -0.023280696411189197 -0.012570282751211213
000090 d1 01 d6 e7 8a 99 76 3f 1e fb be f6 ba 9a 94 3f
       0.005517523384128657 0.020121499357396926
0000a0 17 fc a0 b5 f7 52 91 bf d1 15 fa 17 d8 63 94 3f
       -0.016918058834786445 0.019912125075753743
0000b0 d3 86 f4 20 8b 0a a0 3f 8a 63 d8 85 20 7d 62 bf
       0.03133044030461254 -0.002256930848272669
0000c0 17 c8 89 23 f4 6a 85 3f fe 4e c8 4b b6 3a 73 bf
       0.010457904181041795 -0.004694664090965748
0000d0 40 fc 32 60 ab e7 99 bf 6e e5 6d b3 c1 85 7f 3f
       -0.025297811266451697 0.0076959196511493366
0000e0 27 26 5b 73 d8 f5 43 bf 04 7b 04 7c 2b 07 44 bf
       -0.0006091410529844341 -0.0006112062765487318
0000f0 58 89 03 b3 e5 24 75 3f ec 49 fa c2 d3 6a 8e bf
       0.005162141096862825 -0.014852194202181722
000100 8a 4b 92 a7 ea f3 b3 bf 83 9f 60 99 69 84 7d bf
       -0.07794062224483703 -0.00720635652218238
000110 ba a9 a8 41 54 97 54 3f 8e 36 2a f8 fe 74 88 bf
       0.0012567828004060714 -0.011941902111426896
000120 c6 2d bd 81 d8 c1 85 bf 85 b5 3d 69 e3 93 8e 3f
       -0.010623637637443017 0.014930512093736645
000130 76 ff 1b 57 67 d4 9e 3f d3 27 07 ba cc bc 97 3f
       0.03010713071034795 0.02318115125107296
000140 64 eb 20 6e 64 72 91 3f 9f e7 e7 81 d2 61 75 bf
       0.01703793451472836 -0.005220243735033408
000150 53 86 c0 e6 50 4c 81 bf 11 5f de 1f 61 e6 89 bf
       -0.008446342508310034 -0.012646445069364217
000160 0b 5d 55 7a 9a 83 68 3f fc bc 10 de b4 96 81 3f
       0.002992440905170595 0.008588231112382598
000170 42 ad 31 1d 43 57 9b bf dc 90 c9 5a 0c 1f 90 bf
       -0.026700066239226723 -0.015743439713688953
000180 33 f8 1d 50 ba d8 92 3f 0f 71 5e e2 b0 99 35 3f
       0.01840487588878421 0.00032959526503774454
000190 c1 40 0c 7c 14 37 5d 3f aa ad ed 03 81 95 a3 3f
       0.0017831516308355751 0.03824999974207384
0001a0 25 e9 fa 0e fc f2 60 bf 22 94 22 3d 6c 72 9e 3f
       -0.0020689890878574807 0.029733363372219775
0001b0 05 53 1a 7e 1f 6e 84 3f ee ed b5 88 f2 e1 a4 3f
       0.009975667987683243 0.04078634184676476
0001c0 7e 95 e4 ba 03 94 7b 3f c9 5f 35 62 b1 a5 a5 bf
       0.006732954569348746 -0.04227976154169217
0001d0 6d 38 94 bd 65 8e 61 bf 8b 59 92 18 31 93 86 3f
       -0.0021430956954935827 0.011022933542602661
0001e0 47 e5 e4 0d fd a1 95 bf d2 96 fa 54 55 01 79 bf
       -0.021125749562292098 -0.006104787185596998
0001f0 dd dd 82 98 3a 0b 91 3f 26 32 74 9b 1c 94 6d 3f
       0.01664439731459121 0.003610664247054157
000200 67 b7 c8 17 9e 0a 59 bf 7e 4f 66 87 a3 14 33 bf
       -0.0015284103275336693 -0.0002911471596231881
000210 d6 fd f6 a7 f2 fb a2 3f b3 e8 3f 50 58 41 63 bf
       0.03707845974303907 -0.002350494849449347
000220 5f 34 22 9a b5 70 87 bf 78 09 7e 20 0c df 99 3f
       -0.011445444837841543 0.025264920695471343
000230 9c 51 b5 75 85 d0 94 3f 66 41 1d 83 63 8e 4d bf
       0.020326695737212228 -0.0009019838237041388
000240 ff 15 fe 3a 30 0f 57 3f 4b 5a 12 5c 9d 5b 97 3f
       0.001407429790533654 0.022810419792757036
000250 a3 53 61 b9 cf 0a 8f 3f 4c 60 6a 18 eb cc 9f bf
       0.015157339901785088 -0.031055138936239055
000260 cf a6 ee fb 02 86 91 3f ca 8e 41 91 5a 0a 79 bf
       0.017112776400302118 -0.00611338975804516
000270 65 55 ee e4 50 7b 9e 3f 3f ab 23 62 d4 03 9d bf
       0.02976728818210485 -0.028334921350430916
000280 0f 25 d5 cf 9f 11 72 bf b3 52 cb e8 b5 9a 9c bf
       -0.004411339058898691 -0.027933924039489976
000290 07 7e 12 af c8 f0 80 bf 97 fb ee a1 fd 02 7d 3f
       -0.008271758883267045 0.007082930328521273
0002a0 19 a7 1b 26 0e 97 66 bf 3d f6 bb c5 98 2d 9b 3f
       -0.002757575640193088 0.02654112536310137
0002b0 5b 56 70 74 c5 8a 82 bf 71 ef 0f 92 f1 1d 4f 3f
       -0.009053747764521327 0.000949614481327894
0002c0 01 62 bb 31 4b d1 87 3f b0 42 8d b7 ac b1 90 bf
       0.011629664855193235 -0.016302775099861833
0002d0 48 dc 68 b5 37 70 8f 3f b0 59 1e ab 22 a3 01 3f
       0.015350756858522399 3.364038037927412e-05
0002e0 0d c5 15 36 18 3b 49 bf c6 a0 79 00 ce 04 a3 3f
       -0.0007699840754595025 0.037146031911846886
0002f0 83 1e 54 ad ec ba 92 bf 3a 50 8f 06 b7 1a 92 3f
       -0.018291185454499825 0.01768003442323638
000300 2b 11 33 dd 40 e3 97 bf c7 03 d8 1d a7 d4 81 bf
       -0.02332784032911765 -0.008706384275685054
000310 0c f4 9e d6 11 1d 97 bf 43 8e ed bf 1d ac 8c 3f
       -0.022571829533024654 0.014000160617519635
000320 72 fa d1 9c bb 24 9c 3f b3 32 fe 4d 05 92 95 bf
       0.02748387474684439 -0.021064837346375053
000330 db 8b 7c bd 39 4e 7d 3f a7 d0 c9 10 bf 88 6f 3f
       0.007154679820618316 0.0038493854283903786
000340 5e 74 d8 93 ed 05 72 3f fa fa 37 ee 3c 5a 86 3f
       0.0044001846668183225 0.010914302844864821
000350 56 68 0d ab e4 71 81 bf 05 ed cf 03 30 07 77 3f
       -0.008518015356163183 0.005622088964624132
000360 1c 18 1d 9f 76 f3 88 3f a0 b4 53 f6 25 47 a0 3f
       0.012183119517100542 0.03179281837388115
000370 14 4a be 64 30 df 72 3f 7e 78 8e be 8a 27 8a 3f
       0.004607380902501141 0.01277073282272689
000380 a8 98 e5 c2 3a 5b 81 3f b6 e4 dc 3b 88 b7 a7 3f
       0.008474787781505747 0.046322114284018154
000390 46 3b b7 e9 46 a9 a5 3f cc 33 74 cf 64 3a 81 3f
       0.04230710604644243 0.008412158566466398
0003a0 fa 07 c4 8f 27 76 94 3f f8 6f ed 80 a5 9c 6e 3f
       0.019981973790898146 0.0037368042462002614
0003b0 e8 78 fa c7 79 46 89 3f 82 5d 15 76 a3 2a 81 bf
       0.012341452994686766 -0.008382107773896367
0003c0 75 ef 2d 9b 01 e4 5a bf a8 28 d2 f3 f7 f9 81 bf
       -0.001641274994397227 -0.008777558449100845
0003d0 08 4a 7c 62 c3 e6 88 3f 15 1c 7b 07 f2 f2 93 3f
       0.012158895915068704 0.01948145075473569
0003e0 df 5f 1d 20 9b d5 90 3f 98 c1 ee 4f 49 c6 93 3f
       0.016439842066887308 0.019311089996052994
0003f0 17 da 89 9f 12 92 85 bf 5f 49 b9 72 56 1a 79 bf
       -0.01053251790402236 -0.00612863320164289
000400 d3 5b 45 33 10 ab 91 bf f3 d1 3a 03 cd 45 a4 bf
       -0.017254117135362023 -0.039595038074739984
000410 be c6 a1 e9 f2 32 7e 3f d1 3b e7 be 2d a5 a4 bf
       0.0073728073858647086 -0.04032271342622774
000420 0e 3f 77 dc cc 20 7b 3f 11 ed 36 b7 f9 05 92 bf
       0.006623077620545604 -0.017600919539956076
000430 05 9b 2e 37 9a e0 4f bf ec 49 0b 7f c2 80 7d 3f
       -0.0009728196149481899 0.007202872992552827
000440 ca 45 27 3d bf 4d 98 bf eb 86 77 92 86 a9 74 bf
       -0.023734081370838024 -0.005044484779746598
000450 32 d8 e0 16 0f 36 70 3f 90 88 21 e7 c1 3f a9 bf
       0.00395780462536348 -0.049314555610878164
000460 0c 36 48 95 98 ee 9f bf 6a b7 e5 cf 6a 63 8a bf
       -0.0311836091150806 -0.012884935826800354
000470 d5 aa 78 a7 4e 07 75 bf 8a b9 ba f0 44 a3 88 3f
       -0.0051339218548871095 0.012030161472776486
000480 4e 5a f5 98 3a f8 a4 3f ea a8 79 ff 03 7a 87 bf
       0.04095633618515092 -0.011463195070252803
000490 74 99 93 af 79 45 a6 3f c2 f9 8a 50 56 4a 8a bf
       0.04349880474346693 -0.012837099392865595
0004a0 0a 6e 5b 64 98 03 74 3f 8d 75 33 ec e7 44 84 3f
       0.0048862412274632925 0.009897052665503359
0004b0 82 f6 0c ca 6e 39 95 bf 17 e2 b8 6c dd 6b 73 bf
       -0.02072690113276688 -0.004741539898127665
0004c0 fa d3 2a 56 81 1e a3 3f 4c 75 d2 0a 6d b7 a6 3f
       0.037342111366719125 0.04436817891221753
0004d0 00 44 76 f1 62 05 88 bf bf a5 6f 22 41 35 9e bf
       -0.011729023927530946 -0.029500024535001886
0004e0 da ac f7 90 3b 46 8f bf d9 a9 67 26 16 b3 5b 3f
       -0.01527067695766109 0.0016906467732221624
0004f0 97 b9 f1 e4 e4 31 9b bf f4 e9 4c d6 1e e9 9e bf
       -0.026557518457076403 -0.030186158971654067
000500 af 8b 4d ba 54 df 92 3f 7f ab d4 df fe 3e 95 3f
       0.018430065032031425 0.02074812165407591
000510 3e 4a fb 2a 75 d5 82 3f 19 f5 9f 6a f8 49 91 3f
       0.009196200727648148 0.01688373709474886
000520 1d 86 06 46 bc 29 a5 3f cd d4 39 54 15 c0 8b 3f
       0.04133404116442938 0.013549963600988946
000530 d5 bb 5a 55 09 28 a4 bf 61 23 54 98 86 7c 94 bf
       -0.03936795393871476 -0.020006278083232746
000540 dc 5b 2b f0 8b 8f a1 bf d6 41 1a 09 0d 8b 8c 3f
       -0.03429829890017519 0.013937093582428266
000550 be 34 d9 c6 de 61 84 3f 0d 18 55 f5 75 b9 93 bf
       0.009952297633527226 -0.019262164210225353
000560 08 26 9a 09 a6 b8 87 bf 75 8f c6 15 e9 cb 84 bf
       -0.011582657974275726 -0.010154553391494162
000570 2a 75 df 75 d7 42 a3 bf c1 80 77 e0 60 0f 6d bf
       -0.03761933626058529 -0.0035473720670183566
000580 e5 9b bb c6 26 ba 53 3f 2d de eb fe 4c 23 a5 3f
       0.0012040499377066135 0.04128494846184725
000590 74 cf 91 c0 91 a9 eb be 56 c2 17 71 16 88 81 bf
       -1.3190450788714876e-05 -0.008560347868269574
0005a0 d2 76 66 18 cc f6 8e 3f e3 42 23 42 cb b6 56 3f
       0.015119165892254403 0.0013863549179868255
0005b0 0a fb bb 9a c4 86 8c bf 3d 92 31 7a 14 a8 87 bf
       -0.013928924533954685 -0.011551055888227352
0005c0 49 ec 40 0f 05 ae 82 3f bf ce 0f c5 e7 36 43 bf
       0.009120978858950706 -0.0005863792122213425
0005d0 91 1f 3c 7c d4 73 9d bf 12 cc c5 33 3b f9 a0 3f
       -0.02876216896314038 0.03315148360243127
0005e0 50 89 35 0c 15 8d 8c 3f 1c 79 57 60 53 4c 90 bf
       0.013940967974751445 -0.015916159396391114
0005f0 28 8c d4 85 d1 fb 73 bf 5d 3b 12 6a f9 d0 83 3f
       -0.004878824661576998 0.009675930547272388
000600 5f 46 f0 d1 1c a0 96 bf d5 7b a5 34 25 b5 51 bf
       -0.022095156015046743 -0.0010807860695292066
000610 2a a1 cb d7 11 f8 9e bf 13 db 84 8f d2 23 63 3f
       -0.03024318580256239 0.0023364174377563745
000620 f6 92 5f eb e0 69 93 3f 74 16 7a 0f b2 ca 25 bf
       0.018958582273529388 -0.00016625808324393125
000630 8a 1c dd d1 9f ed 98 3f e0 3b d1 4c e7 98 9b bf
       0.024343964752259008 -0.026950468123967286
000640 06 c8 33 da 9a 4e 9e 3f 75 38 35 ae 6d 6c 87 bf
       0.029596728866586396 -0.011437279585745789
000650 ae 60 9b 86 18 6d 83 3f 75 e1 e6 40 ae 16 6f bf
       0.009485427482488564 -0.003794994677459746
000660 62 21 41 86 7c 4f 6e bf 71 fc e4 31 60 6f 68 3f
       -0.003700011455325989 0.0029827956015249725
000670 b7 44 0f cd 25 68 8f 3f b6 c9 28 de bf 58 83 3f
       0.015335364647315648 0.009446619956268925
000680 bc 2d c3 22 d0 e0 89 3f 34 ec b1 e3 40 7e 88 3f
       0.01263582807623364 0.011959559391689557
000690 05 d0 0d 14 32 22 a5 bf e6 36 f1 a5 09 31 91 bf
       -0.041276516864769554 -0.016788626435576236
0006a0 73 a5 20 76 3d 2c 98 bf c2 26 e1 f7 64 26 91 3f
       -0.02360626252644722 0.01674802554069888
0006b0 33 34 da 44 fa 2d a0 bf 6a 28 00 cf 56 af 53 3f
       -0.031600781349972705 0.0012014720668980469
0006c0 e7 f9 a5 46 68 46 68 3f c8 dd 05 56 3f 58 98 3f
       0.0029632603302040986 0.0237741371397229
0006d0 e5 31 3e 27 14 e1 70 3f 72 34 cb b8 a2 0c 89 bf
       0.00412090179805744 -0.012231131805856974
0006e0 cd 43 9c a9 36 1f 85 bf 11 68 d1 20 a5 2c 74 bf
       -0.010313441325282025 -0.0049253893203857904
0006f0 e0 91 45 6d 60 7b a5 3f f0 45 1e 1f 61 4c 96 3f
       0.04195691427119974 0.02177573921614412
000700 fd 58 65 98 83 ca 81 bf bf 95 55 b7 ef 91 88 3f
       -0.00868704613519044 0.011997101576251333
000710 76 f8 18 9b 0f a5 9e bf 72 08 8c f6 66 3b 8e bf
       -0.02992653259411112 -0.014761738204019024
000720 7b 01 e3 72 c2 67 8a 3f 5f 24 95 24 53 23 89 3f
       0.012893218165459732 0.01227440791503137
000730 58 de 5b 30 46 4f 95 bf f2 1f 8a 8f b0 45 93 bf
       -0.020810219480124154 -0.018820532570799693
000740 e8 b2 50 fd cb 0a 90 3f 85 6d 4b 17 eb 2d 99 3f
       0.015666186653265607 0.02458922700576018
000750 82 d3 cc fe 12 10 a4 3f 07 0b 56 63 39 1f 8a 3f
       0.039185136416938895 0.012754867881772393
000760 a0 a3 1a 90 c2 e3 84 3f a7 e4 9c ca a4 55 9a bf
       0.010200042746264348 -0.025717329851634798
000770 bf 1c 8b 48 e5 e9 88 bf a9 66 d6 a2 73 c9 56 bf
       -0.012164870525693037 -0.0013908032663948833
000780 5d c9 cb ba b3 1d 9f 3f 4f 60 e5 63 5b 28 61 bf
       0.030386741901517456 -0.0020944390263757727
000790 0b d7 5e 53 3a a8 95 3f d1 10 5b e7 69 10 91 bf
       0.02114955076077422 -0.016664175744850965
0007a0 9a 39 94 23 ae f2 9b bf 9b d3 0a 35 c0 0c 77 bf
       -0.027292939111299576 -0.005627394494401107
0007b0 be 0f b4 c1 c5 60 9f 3f 25 d9 b7 8a 7f 53 91 bf
       0.030642595241274988 -0.016920082894977945
0007c0 a5 90 ae c8 56 8c 96 3f 8b de 87 58 33 36 82 bf
       0.022019725798273843 -0.00889244188236595
0007d0 c8 f7 32 1a c3 89 84 3f 76 76 e0 d9 93 e7 9f bf
       0.010028385388405683 -0.031156835721154207
0007e0 58 3e 7d 75 37 04 7f bf ff 24 95 35 ca 21 95 3f
       -0.007572380672925393 0.020636710663244347
0007f0 7f 20 40 ed 38 ab a1 3f ca 6d 15 17 e7 ba 49 3f
       0.03450944801449029 0.0007852199907278309

main.2.weight f8 [24, 12, 4, 4]
000000 5f 17 d3 8f 1c 2a 94 3f 12 f2 33 a7 9a ce 85 3f
       0.01969189288936179 0.010647972324016517
000010 9c 36 50 11 1f 2e 84 3f ea fd f9 38 ca 27 9c 3f
       0.009853594508992196 0.02749553654439111
000020 3f b5 50 90 f7 87 7c bf 0e 8d 64 b9 d1 d8 75 bf
       -0.006965605779482075 -0.005333728060836108
000030 2b 0d 46 60 1c 3a 81 bf 92 07 55 5a 5e 46 5c bf
       -0.008411618888891489 -0.0017257615484855588
000040 44 3e 5b f7 e0 89 84 bf 9c 64 48 30 fe 50 a0 bf
       -0.0100286078917683 -0.03186792697324245
000050 a8 a8 bf 8e b0 4c 94 bf c2 34 5c 9a e2 bc 92 bf
       -0.019823797905623636 -0.018298664733312327
000060 64 b0 95 6b b9 7b 70 3f 4f eb 3e f7 9a 78 96 3f
       0.00402424268518695 0.021944447842297262
000070 8a 71 2f 75 b9 81 90 bf bb 3d 16 83 10 29 95 bf
       -0.01611985948317022 -0.020664461136730355
000080 5f 27 3f c2 16 60 8b bf 3f 14 16 05 bd 51 93 bf
       -0.013366868784845996 -0.01886649459403977
000090 94 86 62 e4 cb 15 91 3f 8a 6c ca 35 c2 e2 93 bf
       0.016684709372049314 -0.01941970303833477
0000a0 a5 04 b4 3b 12 6a a2 bf e6 46 b4 b9 48 74 7e bf
       -0.03596550921248224 -0.0074351158939564895
0000b0 8e 7d a4 b7 ad f5 53 3f 62 88 7b e3 0a 28 63 bf
       0.0012182423075229628 -0.0023384297054330075
0000c0 e7 6d cf 99 e8 d5 96 3f b5 1a 7c 6f 81 64 9a bf
       0.02230037153991118 -0.025774023465624924
0000d0 09 47 f2 ac d0 5f 97 bf 1b 25 c5 e4 b5 ff 9b bf
       -0.022826443248567894 -0.02734264572908272
0000e0 09 bf ec 5f 15 02 9b 3f 2f d8 43 73 bb cc 92 3f
       0.02637513540247397 0.0183591164686378
0000f0 52 7c 49 9d 81 29 52 bf 60 1a 08 d3 73 2c 7f 3f
       -0.0011085286870622557 0.007610752524220915
000100 90 f8 c2 3b 91 73 91 bf a3 2e b7 0b e1 48 80 bf
       -0.017042416832503238 -0.007951505823164345
000110 f6 77 84 13 7f fe a3 bf 1f be 7b 44 52 d5 68 bf
       -0.039051028378011596 -0.0030314070498815983
000120 07 b1 2a 1c 10 4f 8a 3f 17 91 86 ae 9e 4e 82 bf
       0.012846113071042454 -0.008939017964458658
000130 5a ff 46 7c ea 27 93 3f ce bf fa 5e e3 f7 9c bf
       0.018706954798971644 -0.02828936831673428
000140 c7 d2 09 bb c9 e1 72 bf f4 bb ea ce 64 f3 4c 3f
       -0.0046098594763079375 0.0008835069873692745
000150 42 fb 57 46 16 4c 92 bf 5d 2f 4e c0 78 c5 79 bf
       -0.0178683739122747 -0.006291839298579874
000160 27 8a e5 d0 20 ca 61 3f c3 2e 43 97 c3 59 96 3f
       0.0021715775430249 0.021826797587705792
000170 42 e2 88 0b 21 80 aa 3f 2f b5 9b 99 60 ca 98 3f
       0.05175879731945489 0.024209508300306822
000180 70 a5 ac 26 87 07 7c 3f 20 3d bf 0a ca 9f 8e bf
       0.006843116697191717 -0.014953211262677402
000190 42 74 6d ae 0f 6d a5 bf 84 a6 dc e7 0b 18 a8 bf
       -0.04184769634478204 -0.047058460286575815
0001a0 c0 94 84 fa 8a 39 86 bf d7 83 6a 1f 11 bd 87 bf
       -0.010851941843223023 -0.011591085215799808
0001b0 fa 8c 74 5e 79 07 93 bf b6 9d be 55 13 07 89 bf
       -0.018583198919384515 -0.012220526746957155
0001c0 32 6c 1b 79 28 01 79 3f 55 5a ab ec b8 53 90 bf
       0.006104620073268884 -0.015944375462675648
0001d0 93 29 a7 31 b5 8e 95 bf 2f 9b 9f a3 d5 63 70 3f
       -0.02105219951207855 0.004001459625192535
0001e0 02 39 f9 6d ff 7d 7b 3f 4d cc 50 80 96 ec 9e 3f
       0.0067119577139023185 0.030199386197818524
0001f0 4e 51 70 55 ff d0 7a 3f a8 26 dd 5e 55 67 7d 3f
       0.006546971700135918 0.0071786246097162235
000200 3e 8d cd 6f f6 43 01 bf 0c 4b 70 bd 61 97 ab bf
       -3.2931287910621044e-05 -0.053889326453051195
000210 f5 b3 9e d7 24 73 69 bf 8e 93 cd 71 dc 46 9e bf
       -0.003106662709760228 -0.029567188688264738
000220 cf 0c a7 8d 3c f5 94 3f d2 90 00 37 56 cd 95 bf
       0.020466753145012725 -0.021291110140865772
000230 29 82 05 13 d4 e8 5c 3f 5e c4 f1 51 e8 2d 8f bf
       0.001764494994937258 -0.015224280358071048
000240 66 3a a1 c5 4c f5 88 3f 1e 48 cc 1c 15 06 93 3f
       0.012186622410948544 0.01857789028424161
000250 71 ff 42 32 58 a9 80 3f c5 75 f0 12 f2 66 81 3f
       0.008135499032846135 0.00849713440225742
000260 83 6f 94 d7 07 00 71 bf e2 a2 e6 f5 52 f1 76 bf
       -0.00415041983913145 -0.005601238312387765
000270 d0 b2 79 2d fe e1 91 3f 8a ed dc 25 cd 12 82 bf
       0.017463656926724636 -0.008824923246371314
000280 d4 07 6e d5 76 0b ac bf f3 98 76 3b 04 e6 8a bf
       -0.05477496486038516 -0.01313403421847823
000290 60 ed 46 a5 07 62 90 3f ef 83 38 81 70 6f 8d 3f
       0.015998954260550646 0.014372710174088225
0002a0 85 1c 8d 03 5c cb 81 3f 0a 50 84 cd 0a 4f a9 3f
       0.008688658579229855 0.04943116911650243
0002b0 c5 38 06 05 7a 1f 81 bf 8d ef 13 2e 4f fa 8e bf
       -0.008360818174676496 -0.015125864595112915
0002c0 71 2d 09 31 1a 77 a1 3f 2f be 5b 92 72 31 87 bf
       0.034111803518125046 -0.01132478245878507
0002d0 cb 87 13 87 6b 6b 7b bf 80 ba c2 a7 6b 08 91 bf
       -0.006694240598536137 -0.016633684267328253
0002e0 1e 88 f1 21 21 dd 88 3f 15 35 42 18 99 d8 64 3f
       0.012140520904896642 0.002544688237384416
0002f0 12 9e d1 ab 91 2f 97 bf 14 df 95 ca b8 f7 38 bf
       -0.022642398941028992 -0.0003809763098483337
000300 fe 6a 69 f3 8b 9a 8d bf c6 70 d1 4c 9c 81 8f 3f
       -0.01445493065437153 0.015383931249907678
000310 41 9b 82 63 5c ef 92 3f 0f 1c c1 06 15 62 8f 3f
       0.01849121434556911 0.015323795574785163
000320 ef 40 18 d4 77 c9 8b bf da e0 7f 1d 72 ad 79 3f
       -0.013567863617055724 0.006268926394106889
000330 a8 95 b1 fe b6 29 7c bf 69 53 20 de 81 b1 8e bf
       -0.00687571985608796 -0.014987005797630197
000340 ff 72 88 de ff fe 83 bf 96 af 30 19 6e ad 8d bf
       -0.00976371667734943 -0.01449094786047293
000350 38 6a 07 65 50 e5 91 bf ab 43 d7 0d 8e 5b 9c bf
       -0.017476326147383342 -0.027693004221706435
000360 f5 4e db 69 30 06 a5 3f 63 1a 36 af 38 33 8d 3f
       0.04106284420200083 0.014257853362108002
000370 68 5f 5f 30 d7 9f 9b bf 1c 4c 0e bb c7 1a 7c 3f
       -0.026976930930544013 0.006861477087016812
000380 a6 8f 50 ee 71 98 a1 bf d4 9e 0e 07 59 55 9c bf
       -0.03436618837466136 -0.027669325881702303
000390 28 af 74 d4 d9 f7 3d bf 93 31 f9 ec f2 9f 7c bf
       -0.0004572779475491167 -0.006988476684977834
0003a0 40 0a 82 b0 a7 eb aa bf b1 ba 17 62 52 c1 70 3f
       -0.0525791552509145 0.004090616044307425
0003b0 fb 5a b1 00 03 df 94 bf 56 ba a7 de 86 38 7c 3f
       -0.020381972234043904 0.00688984569067815
0003c0 11 51 0f a7 5c 09 96 3f 57 8e dc 02 4d 84 88 3f
       0.021520087906382438 0.01197109379751919
0003d0 ee 60 0a 0a f7 06 a0 bf e0 b4 5f cd ce a4 98 bf
       -0.031303138709690134 -0.02406619194510007
0003e0 08 f4 b2 5c d8 01 99 3f 99 db ed cf dd 53 94 3f
       0.024421101243877558 0.019851175132739127
0003f0 73 d4 76 09 7d 21 95 3f 88 8e a7 01 eb 82 6e bf
       0.02063556070580259 -0.0037245359392146828
000400 32 3e 03 ff 68 29 9c bf 98 17 20 e8 74 3a 70 3f
       -0.02750171715234568 0.003961998621894745
000410 58 25 fa 89 71 ce 6e 3f c2 ca f7 52 7c 77 59 bf
       0.0037605493124074733 -0.0015543665029979369
000420 75 dc 21 23 cc 03 7b bf 3d d4 8c 43 7f ef 56 3f
       -0.006595418368411922 0.001399874001618131
000430 b4 dc 9c 7e d4 57 95 3f a3 92 03 d4 48 54 8b bf
       0.020842857578114063 -0.013344353647377466
000440 29 b1 1b 23 d9 8a 88 3f 42 e6 e1 56 6e 2f aa 3f
       0.011983581909099943 0.05114311991287625
000450 9d ca aa c9 59 b2 83 bf af 7a 3e 84 f8 eb 99 3f
       -0.009617520777600414 0.025314219543015323
000460 27 69 c6 b8 e7 24 96 bf 29 51 63 99 44 d9 94 bf
       -0.02162515702512127 -0.020360061513956005
000470 8a d6 81 51 d5 43 9a 3f 9a b2 12 49 c1 ff 3d 3f
       0.02564938840847345 0.0004577490700039905
000480 00 3e 16 47 19 01 67 3f 51 98 dc 1c c3 74 8e 3f
       0.0028081411080120855 0.01487114364460865
000490 cb 91 c7 4d 7c 1b 9f bf ac a4 e8 c5 ac 19 4e bf
       -0.030378286597526654 -0.0009185880297241287
0004a0 14 a6 59 42 3e 8c 8c bf be de ad 39 c5 78 80 3f
       -0.013939367675635451 0.00804285127900017
0004b0 4d b3 8b 70 2d ce 93 3f 47 97 6e ea 89 ca 8c bf
       0.019341192239994687 -0.014058186976238963
0004c0 fc b2 11 92 d0 c1 8a bf 88 b8 f6 66 9b ea 7d bf
       -0.01306498475806838 -0.007303816833355133
0004d0 c1 88 5e da 18 11 85 bf 05 1b 38 24 c1 14 70 bf
       -0.010286516346074472 -0.003926042994413907
0004e0 25 53 6a da ce e3 ab 3f 79 de 99 f9 57 78 95 3f
       0.05447241226389669 0.0209668871015922
0004f0 8c 08 45 04 04 aa 81 bf 85 2a d8 40 8f 57 a5 bf
       -0.008625060444164022 -0.041683651605201745
000500 6b 7e 19 a9 98 1a 88 3f cd c9 a0 ac f4 91 9f 3f
       0.011769478474149516 0.030830214535123624
000510 5f aa 15 fe c6 4f 85 3f 3b 50 9e bc 74 f4 9c 3f
       0.010406069401786398 0.028276275646547538
000520 e4 af db a3 43 8d 95 3f 0a 55 56 2b 87 28 8b 3f
       0.0210466927300529 0.013260894784972627
000530 86 3e 98 96 32 8c 07 3f 45 ed ab 38 79 46 a8 bf
       4.491357215041535e-05 -0.047412670295637706
000540 1b 09 73 88 02 6a 6a 3f 74 42 3a c5 92 b9 58 3f
       0.0032243775818595727 0.0015090878777394264
000550 b7 4a b1 25 58 62 a0 bf f6 8b 31 f3 5f ca 97 bf
       -0.032000307656422526 -0.023232936113696888
000560 e4 15 b4 e8 49 0e a0 3f 07 6d 16 66 14 ad 87 3f
       0.031359014183219874 0.011560592046228736
000570 dc ca 51 be c2 ce 91 3f fd c4 04 b5 c1 aa 9e 3f
       0.017390292040043373 0.029948259995937743
000580 74 f8 17 66 6b e0 97 3f 4d c6 eb 65 22 63 7a 3f
       0.02331703005437942 0.00644219815034004
000590 9a 59 14 2a 3c 81 86 bf 97 72 55 5b 3c 40 98 3f
       -0.010988683733143035 0.023682540010997313
0005a0 2e c8 29 bb be d6 9c 3f 8b 7b dd c1 bc 48 95 3f
       0.028162937329803288 0.02078528340586731
0005b0 b5 3b c9 78 e9 50 b0 bf 25 88 ab f3 a4 ec a6 bf
       -0.06373461912993046 -0.044774203057173424
0005c0 29 ee 8c 03 a4 e8 7e 3f 29 50 b6 93 90 39 72 3f
       0.007546082190681904 0.004449429277332975
0005d0 74 3d 8e 41 7f 34 63 3f fc cd a6 78 aa cf 83 bf
       0.002344368502640465 -0.00967343502711681
0005e0 f1 58 e8 b9 b2 4d 62 bf c3 22 2d 60 73 25 97 3f
       -0.0022343149896740734 0.022603800530563555
0005f0 31 fd 53 5a 65 65 9f 3f ac 5b 6d 8e 84 41 92 3f
       0.03066023219889508 0.017828055565896214
000600 3a 03 ae 50 80 9a 81 bf 5f fe 79 a7 fe 12 81 bf
       -0.00859546896185891 -0.008337010847071
000610 fe 20 93 ea 9b 20 a3 bf e2 14 cd a3 6f c6 7c 3f
       -0.03735816229306187 0.007025180905491287
000620 ae fb b8 df af ed 40 3f ca 12 ce be e0 54 93 3f
       0.0005166157492978351 0.01887847103673116
000630 9c 01 78 56 7a cc 89 3f 57 b3 18 d0 7a f9 7e 3f
       0.01259704185849913 0.007562141168404
000640 ba d7 39 de 27 47 89 bf aa cc b4 f8 61 da 94 3f
       -0.01234275004319928 0.020364313893151
000650 81 50 21 96 cb 95 84 3f 68 5c 20 a4 f5 54 79 bf
       0.010051336783512223 -0.006184539352054853
000660 f5 67 48 5e ab 7c 81 3f 7f 9e d1 2e 32 34 49 bf
       0.008538569273742505 -0.000769161704408952
000670 60 6a 3e b0 74 8c 90 3f 93 b5 2a 3a 20 d6 80 3f
       0.016160796410625955 0.008220912718878625
000680 ab 49 bd 3d 3c 18 5f bf 61 a1 a9 0f 47 1c 86 bf
       -0.0018978679936095626 -0.01079612270878333
000690 1a a2 eb 9c 85 2d 96 bf b3 c1 36 c7 fd 55 94 3f
       -0.021658027365363798 0.019859280857134908
0006a0 81 32 94 95 81 ea 86 bf 3f 9c ed 7b c6 f3 ab bf
       -0.011189472558293946 -0.05459423315806377
0006b0 ae b4 cb 41 08 6c 9b bf 55 a9 4f 10 bc 3c 8e 3f
       -0.026779297843792342 0.014764279601838718
0006c0 76 74 d6 17 fb 9d 96 3f f3 dc 04 f5 1c 92 a4 3f
       0.022087024049700386 0.04017725459055468
0006d0 1f f1 15 21 ec b2 5d 3f 0d 3c cc 49 1e 71 9f bf
       0.0018126779508228009 -0.030704949621448253
0006e0 04 bd c8 3a 1a eb 96 bf 01 c6 58 41 a4 a3 78 3f
       -0.022381219709299863 0.006015435812103843
0006f0 1d 31 a3 36 fb 41 96 3f 4c e2 83 97 14 ba 88 3f
       0.0217360736940445 0.012073670266986934
000700 e1 3a af 8f fe 7d 72 3f 64 2c 1c ec d4 6e 97 bf
       0.00451468885417114 -0.02288372698880571
000710 df 3c 62 9a 87 58 85 bf a2 25 21 ae 1e 85 80 3f
       -0.010422763251226317 0.008066405953416848
000720 74 9e 4a 60 a0 70 80 3f ef ea 25 77 10 84 a0 3f
       0.008027317942221425 0.03225757078594948
000730 a1 3a 91 fd 84 8e 98 3f 68 26 fc 6d 49 86 7d 3f
       0.023981168724555805 0.0072081440300820546
000740 93 58 85 5b 2e 2e 30 bf 0d 04 02 88 93 ff 9a bf
       -0.00024689323210703404 -0.0263655711901301
000750 fa a0 40 05 0c 45 78 bf 04 b8 20 b6 d5 cb 89 bf
       -0.005925223307748912 -0.012595815296744924
000760 21 51 7e 00 a1 9a 80 bf 17 00 52 6c 3e fd 44 3f
       -0.0081074312472898 0.0006405405807896639
000770 09 6f f7 5a f4 34 90 3f 0e fb 16 65 23 28 8f 3f
       0.015827005436093198 0.01521327640773287
000780 f6 06 9f e3 50 d5 26 bf 09 11 2d 17 10 0d 96 bf
       -0.00017420399109196295 -0.021534205832055373
000790 9e b1 90 c5 9d 4e 89 3f d4 8b 49 61 3c c4 8b 3f
       0.012356979934417475 0.013557883948299855
0007a0 2a 07 7e 15 05 0a a5 bf 69 b5 f3 b5 82 74 9f bf
       -0.04109207045895709 -0.030717890124767253
0007b0 e6 0e 1d eb 27 4e 8e 3f cb c4 6b 30 e4 61 93 3f
       0.014797508108706347 0.018928113417989317
0007c0 95 3b a9 53 fe 4a 9b bf fd 12 32 86 35 fa 92 bf
       -0.026653264862314414 -0.018532596889161635
0007d0 6d 76 93 cf 18 a9 88 3f dc 9f 9d 1a 77 50 70 bf
       0.0120412767741371 -0.003982987642167726
0007e0 7e e3 08 3b 46 7d 9b bf dd af 61 5d 33 88 a2 3f
       -0.02684507117575973 0.03619537844573959
0007f0 35 f5 cd a2 e6 2f a7 3f ef aa 42 3c d7 23 89 bf
       0.04528733003005884 -0.012275392080785845

main.3.weight f8 [24]
000000 f4 62 92 9b 5d 25 f0 3f 76 dd 91 5c de 81 ef 3f
       1.0091224743866265 0.984603100586283
000010 1f d5 e5 d8 4b 7d ef 3f b6 84 8f 83 ab 65 f0 3f
       0.984044955852969 1.0248217715346022
000020 cd 96 56 c4 34 b3 ef 3f 0a 57 bb 44 63 a9 ef 3f
       0.9906257471781942 0.9894272177141101
000030 eb 76 e0 0f d8 2a ef 3f 85 eb 4a 42 2a 2f f0 3f
       0.9739799795240435 1.0115149106556782
000040 11 91 f7 27 e1 92 ef 3f 9b b2 46 80 91 92 f0 3f
       0.9866796284300411 1.0357832918918237
000050 d7 ee 41 66 4a 3a f0 3f 4c 4e 2e 77 d8 7c f0 3f
       1.0142311090884755 1.030479875135728
000060 5b 75 52 c4 44 68 ef 3f 45 9c b5 52 24 b0 f0 3f
       0.981478103105171 1.0430033903919746
000070 46 d2 5c 4f 81 05 f0 3f cf 86 03 15 86 67 f0 3f
       1.0013440227604788 1.0252743550158134
000080 23 68 73 21 ac b2 ef 3f b0 da 21 cb 09 1f f0 3f
       0.9905605939231957 1.0075776991704224
000090 c7 72 4b dc a0 21 ee 3f bc 17 ef bd 4d 51 ef 3f
       0.9416050245887043 0.9786747655532433
0000a0 76 20 a4 f9 5c 1d f0 3f b5 8e 59 7c 8c 07 f0 3f
       1.007168746147753 1.0018429620185263
0000b0 67 52 71 ec a7 77 f0 3f 46 60 9a fe 77 39 f0 3f
       1.0292128788034007 1.0140304513388556

main.3.bias f8 [24]
000000 dc a2 91 ba 18 5d 52 bf 41 93 b1 3f 64 a2 93 bf
       -0.0011208287708319086 -0.0191741622806092
000010 2d 2a 10 58 75 05 97 bf b8 9b aa 09 83 ab 71 bf
       -0.022481759548137404 -0.004313957086799762
000020 a9 f0 bf bd c8 ef 82 3f be 73 99 5d 74 ce 86 bf
       0.00924641446180659 -0.011135968309810337
000030 43 33 55 24 ae d2 86 bf c4 06 5f 47 63 e3 69 3f
       -0.011144028171338532 0.0031601847685756874
000040 81 26 e4 1b e9 0b 7c 3f 50 78 de ab 7f cb 9b bf
       0.006847296315990571 -0.027143473496487325
000050 be e4 26 f0 80 12 70 bf 94 a2 d8 08 ee b0 56 bf
       -0.003923896469524011 -0.0013849567943770335
000060 f7 ea 10 7f 9b 2c 83 bf 5b c5 55 7e f0 96 88 bf
       -0.009362425627946076 -0.012006644111098799
000070 bb 88 b9 b4 9e fb 6f 3f a4 9b 2c e2 dd 39 73 bf
       0.00390416142708813 -0.0046938578914596275
000080 a4 b9 fa d1 82 2a 66 bf 82 a1 77 2d 53 b1 7a 3f
       -0.0027058177073151102 0.006516766464735093
000090 9f d3 ba 2d 3c 4e 9b bf 27 09 11 07 71 37 98 bf
       -0.026665630618214583 -0.023648992592151388
0000a0 66 6e d5 e6 a8 f0 81 bf 21 43 45 af c0 54 93 3f
       -0.008759803337560611 0.018877993295350785
0000b0 63 de 23 37 c8 35 8c 3f 80 de 48 33 f8 ad 96 3f
       0.013774456198446921 0.02214801610008843

main.3.running_mean f8 [24]
000000 90 3b 56 9b 6a 31 79 bf 74 a9 f7 c0 51 34 8e 3f
       -0.006150642807724163 0.01474822874202595
000010 98 79 c3 7a eb 1d 9e bf 26 e2 44 ea bb b6 99 3f
       -0.029411010139364174 0.025111137555741923
000020 6a 21 e2 87 58 05 99 bf 99 74 17 c3 0f 52 84 3f
       -0.024434455197963535 0.009922145024513095
000030 f8 cc 52 66 08 ec 76 bf 49 7d d4 cd 72 b9 9a bf
       -0.0055961921799962885 -0.026098054707401706
000040 61 b6 b4 f5 08 e3 9b 3f 2d 40 6b 41 88 5a 79 3f
       0.027233257290552596 0.006189853904928139
000050 96 97 3a ac 67 07 a9 bf 51 2a f3 97 74 be 53 3f
       -0.048884620451004654 0.0012050760849883389
000060 e4 f6 a0 d1 1c 32 95 3f 0a 14 cd 80 f7 46 92 bf
       0.02069897679779488 -0.01784884189261863
000070 54 a9 7a b7 ac 93 8b bf ca 1f 77 7f a0 21 8d bf
       -0.013465260838832073 -0.01422429455750764
000080 26 6b 60 66 96 cf a3 3f 8d 2d ef 6b 65 2e 7f 3f
       0.03869314193453581 0.007612606218525453
000090 ff 7f 03 57 9d 68 4a bf 4b f2 76 75 c3 3c 94 3f
       -0.0008059280644623356 0.01976304439971192
0000a0 89 ed f0 9f 02 3f 84 bf 93 2b c0 6a 12 92 61 3f
       -0.009885807519927752 0.0021448478419236554
0000b0 4c 62 42 4d b4 3f a5 3f ee f9 20 ee 68 58 ac bf
       0.04150165026766625 -0.055362013882120795

main.3.running_var f8 [24]
000000 79 07 0f 4a 26 e7 22 3f 00 5a 50 8d 27 73 35 3f
       0.0001442178954942882 0.00032729831338099147
000010 64 22 35 b1 14 1d 4f 3f 49 88 ca 0d 08 1b 49 3f
       0.0009495116268363854 0.0007661618543191108
000020 cb 22 b5 ad 6a 6a 45 3f 46 63 5c 66 d0 c8 22 3f
       0.0006535550013860523 0.00014331382697532253
000030 df 95 e8 a0 d7 ae 1b 3f e0 97 6f cf b7 7d 4d 3f
       0.00010560217945306632 0.0008999965201581493
000040 83 c5 7c 35 6b dd 4e 3f ef 98 a3 2c de 3d 21 3f
       0.000941922519791458 0.0001315435131978358
000050 79 6e 71 e8 a2 cc 65 3f 45 a8 3c b4 40 37 14 3f
       0.0026610547825336975 7.711727544959617e-05
000060 60 dd ce d3 fc 75 3e 3f 7a 7a 38 9f 83 27 3d 3f
       0.00046479628127423477 0.00044486010958336814
000070 dc f4 2c b2 5d 6b 31 3f 68 0e d5 29 68 6a 2f 3f
       0.00026579892635310103 0.00023968240285842106
000080 eb 50 d1 f3 70 e8 5e 3f ee e9 df e3 f5 b0 25 3f
       0.00188647299298333 0.00016549111927573141
000090 bd de ef 4f 8d be 0a 3f 98 3a 18 dd 52 a2 43 3f
       5.101078749441882e-05 0.0005991844756766005
0000a0 de 7e 38 cb b6 3c 20 3f e2 03 36 74 c3 60 05 3f
       0.00012387973184590275 4.077526548496698e-05
0000b0 79 3c 74 df e0 85 60 3f f6 41 e9 19 31 2c 6a 3f
       0.0020169632003966234 0.0031949004181017716

main.5.weight f8 [48, 24, 4, 4]
000000 77 87 74 1d 37 a5 58 bf 20 1f 31 6d a2 bb 8a bf
       -0.001504234145450726 -0.013053196866294636
000010 42 9b 84 93 f3 63 90 bf 07 c2 e0 3c e0 f2 80 bf
       -0.016006284598144356 -0.00827574907097618
000020 4a e7 ae 59 0a ee 7a bf f5 d1 85 2a 09 dd 91 3f
       -0.006574669295270239 0.017444747181302806
000030 28 db 10 0d 77 ea 99 3f e8 50 0f e5 1a db 86 3f
       0.02530847565887054 0.011160097232199864
000040 13 21 e9 53 16 00 98 bf d9 10 f1 75 41 36 80 bf
       -0.023437832709789563 -0.007915984546464848
000050 9d 86 ec fa b6 40 77 3f 52 73 a5 33 08 3b 86 3f
       0.005676951185508064 0.010854782177085607
000060 dd 72 51 c7 35 49 85 bf ec 59 c1 18 bc 2d a0 bf
       -0.010393543381888854 -0.03159892847240883
000070 84 bd a7 7d de 64 78 3f 97 77 0f 14 c7 1e 50 3f
       0.005955571274611219 0.0009839004635447729
000080 2c b2 19 a2 88 35 ac bf 32 cf 38 6f 41 35 67 3f
       -0.05509592989696829 0.00283301143806538
000090 11 88 10 8b 04 7c 91 bf 74 52 6b ab 11 81 aa 3f
       -0.017074652660205972 0.051765968489836306
0000a0 b1 bf b1 b7 76 1f a4 bf 58 a5 63 98 88 94 83 bf
       -0.039302549289345186 -0.009560649061728085
0000b0 af 53 64 4d ae 4a 94 3f fd 47 03 45 ad 3c 7b bf
       0.019816134904505563 -0.0066496628134746745
0000c0 7d 6e 17 6b da b9 97 3f 37 83 d2 b1 58 e6 9b bf
       0.02316991118082833 -0.027245889523899804
0000d0 12 2a 49 bc d0 10 91 bf 1d 1c a4 84 2b 9f a0 3f
       -0.016665708057454216 0.03246437067178241
0000e0 8e 20 12 b9 f7 1f 82 bf 6a 03 9c 18 98 b6 50 bf
       -0.008850035987294082 -0.0010200963319564002
0000f0 1e a0 e5 85 01 bb 73 bf f5 87 3a be bb d8 62 3f
       -0.004817014645915689 0.0023006121499102813
000100 86 94 06 57 13 37 81 bf f9 b5 de f3 09 83 9b bf
       -0.008405829518617357 -0.026867061147347802
000110 a6 89 a2 87 fd df 74 3f 6f 3f d1 85 a2 c0 82 bf
       0.005096426344751858 -0.009156484326154872
000120 4e d3 f5 73 39 2a 93 bf c1 9d e3 2a b5 66 97 bf
       -0.01871576090111953 -0.022852736227745533
000130 51 1c 9c bd 85 9c 92 3f 67 c9 c4 69 70 f0 a0 bf
       0.018175210664619638 -0.03308440486070446
000140 f3 3d 15 1a 8d d5 67 bf f4 f4 f7 28 4f 42 6a 3f
       -0.002909446324941939 0.0032054468244938576
000150 7c d1 43 f0 70 34 88 bf c0 20 71 bd 56 46 88 bf
       -0.011818773586562463 -0.011852910667713323
000160 03 53 3d 1e 9f e0 9b 3f c2 43 e0 0f 7b db 72 3f
       0.027224050732303173 0.004603844367026379
000170 b2 74 41 40 95 71 8e bf d5 17 36 3c 8c 27 75 bf
       -0.014865079902103371 -0.0051646688401713785
000180 54 af f5 65 cc cb 94 3f b0 84 16 33 eb b5 8e 3f
       0.020308679316641445 0.014995419975834728
000190 c5 e2 a4 c5 e7 5b 82 bf ad 71 84 d0 90 f5 93 3f
       -0.008964358061903774 0.0194914462345978
0001a0 a9 38 7e 10 d8 6e aa 3f 9e cc be bc ff 4a 8f 3f
       0.051626922620117206 0.015279767940091834
0001b0 ed 6f 7c e6 f7 82 9d 3f a7 b9 68 bb ad 29 85 3f
       0.028819917147401886 0.010333401948710753
0001c0 1b ea 10 6e 6b e9 8e 3f 8d e1 ed 0f d6 6a 9b 3f
       0.015093650146913487 0.026774735185854538
0001d0 67 6f e9 4f d6 2a 5b 3f d9 75 67 e7 e7 8a 8a 3f
       0.0016581623928208723 0.012960254430192929
0001e0 45 d1 da f5 d1 99 8c bf 6e ba 4b 05 44 69 a0 bf
       -0.013965263667480196 -0.03205311360021744
0001f0 3f 66 a4 49 d2 8d 8b 3f 3a 39 50 90 17 03 98 bf
       0.013454096672421588 -0.023449295218648226
000200 54 67 8c 86 ec 2c 78 bf db f4 45 d0 56 6e 70 bf
       -0.005902217796369975 -0.0040114775805452875
000210 d5 e6 d1 c8 54 2b 8b bf 6c 25 db b7 c1 11 61 bf
       -0.01326624143461023 -0.002083662372432007
000220 60 1e 6e cc be 44 94 bf 8d 2d ba 10 36 04 97 bf
       -0.01979349253409024 -0.022477001925421503
000230 57 f8 0e ee b3 20 98 bf 2d 30 9e 4e d4 24 84 bf
       -0.023562251477180798 -0.009835871361950488
000240 68 ee ab f0 1a 17 44 3f 35 d4 7d c8 40 c5 5e 3f
       0.00061310592113224 0.0018780834816116813
000250 90 a2 c4 0c 8b ce 5d bf 56 98 81 6f 9c a5 94 bf
       -0.0018192632588328907 -0.020163006120491232
000260 3d 77 ec 1c 50 40 45 3f 57 65 78 52 64 38 91 bf
       0.0006485358406711283 -0.01681668046339743
000270 d7 bc 79 ef bd 62 8f bf fc 89 3d 42 76 c2 83 bf
       -0.015325054045403892 -0.009648250481125047
000280 1a 61 4e 42 cd da 91 bf 91 79 ae 2d 10 58 a0 bf
       -0.017436225101478 -0.03192186887393967
000290 a4 dc 8e f8 08 26 98 3f 11 6a 3d 25 ec 66 73 bf
       0.023582592173366237 -0.004736826365695738
0002a0 a1 4f 17 4e 95 d2 5c bf f2 67 4f af b9 1b 3c bf
       -0.0017591913277685627 -0.00042889865227169123
0002b0 99 0b 0b b0 9a bf 98 3f d1 02 34 a8 44 d7 7a bf
       0.02416841220361796 -0.006552951995445881
0002c0 44 6d e9 71 23 7c a0 bf 34 7a 4f 6a 28 22 9b bf
       -0.03219710126424016 -0.02649748944156212
0002d0 6b 9b a0 eb 1d 96 90 3f fc 89 a4 31 29 dc 99 bf
       0.016197650438836513 -0.02525390973563367
0002e0 bf 9c ba 18 a8 55 74 3f 8d 5a 6a a2 ad a3 98 3f
       0.004964501025518319 0.024061883009006513
0002f0 b4 b6 13 24 27 7c 8f bf 10 bc 50 52 b4 fe 78 3f
       -0.015373521603091113 0.006102280026467191
000300 9a 42 04 94 5f d4 60 3f bb e5 bf 7d 9b db 95 bf
       0.0020543925057910474 -0.02134554820074695
000310 65 4d 59 17 f7 d5 83 bf 83 6b 5b 0d ef 1a 8f bf
       -0.009685449981737102 -0.015188090891958833
000320 ae 18 ab f5 bc f1 78 bf 63 9e 1e 66 9b 86 86 bf
       -0.006089914439774953 -0.010998930028861048
000330 2f c6 bb fa 00 41 84 3f 24 ce af e3 7c 3f 84 bf
       0.009889609958437877 -0.009886718462417461
000340 fb c1 94 42 57 de 86 bf 56 8b 59 c4 4e f7 93 3f
       -0.011166269034760914 0.019498091444244046
000350 9c 0b 10 cc 4a 84 61 bf a6 ef be 3f 66 b8 6f bf
       -0.002138277137875245 -0.0038721081782266574
000360 b3 15 d8 96 ea 8b 73 bf 35 be 37 91 d1 62 66 bf
       -0.00477210651798059 -0.002732667265938261
000370 a6 eb 44 ed 70 41 61 bf cf a8 b1 a4 ce 89 9a 3f
       -0.00210640007040071 0.02591631775104802
000380 5a 59 9e d3 27 e4 93 bf 0d a9 c4 c7 72 0d 84 3f
       -0.019425031939669914 0.009791275712434567
000390 b0 c3 3b c4 f5 06 a0 bf c5 6f 78 2f 24 96 65 bf
       -0.03130310078075327 -0.002635069536848863
0003a0 4d 01 ca 3b b0 0f a2 bf b7 36 fb 69 ad 07 7d 3f
       -0.03527594308707425 0.007087399862667424
0003b0 b9 40 b8 20 84 29 82 bf 0f 7e 8f dc cf 87 92 bf
       -0.008868248222853802 -0.0180962065095383
0003c0 98 23 62 94 73 64 97 bf 54 b6 79 b7 2b 97 9e bf
       -0.02284412949714784 -0.029873545716716812
0003d0 84 3d 2f 05 80 32 9d 3f fa fd 61 24 3f cf 7c 3f
       0.028512955013693567 0.007033583306224051
0003e0 72 b1 3d cc bc 19 91 bf ce ad f2 3c 3e eb 92 bf
       -0.016699743238335292 -0.018475506277054347
0003f0 5c 3c 53 66 ab fd 51 bf cf a1 e7 27 5e 01 74 bf
       -0.0010980771851796444 -0.004884116932295914
000400 c2 56 a5 0f 22 90 84 bf 9b 04 42 50 b6 f6 a6 3f
       -0.010040536978219609 0.04485101442060931
000410 60 83 02 e2 44 7d a4 3f 04 8f 4c 94 29 ca 62 bf
       0.04001822718533421 -0.0022936641784258045
000420 70 ec f0 b8 de bc 59 bf e8 41 ce 2e 07 df a4 bf
       -0.001570909025544489 -0.040764069045625295
000430 6b 54 43 e3 a4 98 a2 bf f2 16 7f 13 e3 f9 9c 3f
       -0.036320832006517666 0.028296993317574022
000440 c9 cc 90 a5 d3 e6 a1 3f ed 38 98 51 88 a2 95 3f
       0.034964193306586795 0.021127824764385506
000450 05 77 69 bd 8d e5 8b bf 4a 67 e7 91 91 92 43 3f
       -0.013621432631392158 0.0005973063269337578
000460 b8 73 35 18 6e 84 a6 3f 26 2f a1 f1 4d e9 96 3f
       0.04397911115186254 0.02237436091699787
000470 c5 ce 1b f5 f9 5b 96 3f 7b 9b ff 0a cb e4 82 3f
       0.021835237107508804 0.009225450776239921
000480 82 ba c0 d0 41 36 60 3f 0e 69 f3 d5 de c7 97 3f
       0.0019789967973545272 0.023223382767221294
000490 1b 4c 20 33 65 01 a6 bf aa 4f 35 a5 5e f2 97 3f
       -0.042979395380960926 0.023385504563819083
0004a0 4b 1b 71 1d 07 34 80 3f 20 45 24 ba 65 2c 95 3f
       0.007911735139840245 0.020677175031839856
0004b0 92 73 da ef 54 0f a0 bf 72 65 46 d9 71 9f 79 bf
       -0.03136697223565145 -0.006255573960879489
0004c0 07 e9 1a 4f 68 6d 86 3f 8e 33 01 09 90 c3 80 3f
       0.010950865663620591 0.00818550612907545
0004d0 db 6d fa 17 ea 2d 8d 3f 9f e1 f4 9c 3d dc 82 bf
       0.014247731072194838 -0.009209138252672498
0004e0 d9 11 82 a5 f5 d4 80 bf b6 0f 53 55 26 3c a3 bf
       -0.008218688119321737 -0.037568281093200026
0004f0 aa ab 37 10 c5 11 93 bf a6 b7 3c ba 67 28 8a bf
       -0.018622473826251408 -0.012772379275329215
000500 8a dd d3 97 7c a1 8e bf aa 1a 24 b6 40 e0 ae bf
       -0.014956448920641536 -0.060304662927639655
000510 a6 21 1c ec ce 7e 9a 3f 58 73 b5 75 47 46 89 bf
       0.025874360238079007 -0.01234107807129596
000520 4f 97 2e 2f bc 2b 99 bf 66 9f 00 4c 92 3a a9 bf
       -0.02458089864707996 -0.04927498986972871
000530 4a 59 93 6e 62 95 98 3f 19 68 da 8a 0d 6a 97 bf
       0.024007356642721057 -0.022865497207568895
000540 2c 24 d8 78 51 c4 8e bf 05 b4 da 80 ab aa 82 bf
       -0.015022884846091676 -0.009114589567014173
000550 d9 3c c6 85 4b 42 35 3f f2 49 ad 18 75 f1 8e 3f
       0.0003243860608330269 0.015108980956630245
000560 91 a0 3b 9a f9 59 81 bf 96 6e c3 51 ce 22 98 bf
       -0.008472394961657666 -0.023570274105493803
000570 af 77 b5 53 26 c6 50 bf 4b 82 15 99 1b 75 8e bf
       -0.0010238050734509942 -0.014871802911046525
000580 70 8d 31 bc 76 18 63 bf 16 d1 e8 46 70 b5 77 bf
       -0.002331001190712882 -0.0057882676906511246
000590 a5 02 6d ae df 52 82 3f 78 47 ae 5a 40 8c 87 bf
       0.008947131643823278 -0.011497977034909942
0005a0 0e 59 bb aa 31 3e 62 3f 9d 3e 30 85 4b 3b a0 bf
       0.002226922040658447 -0.031702384956699727
0005b0 05 f2 6a 10 c2 ec a0 bf f9 32 42 ca 60 e0 89 bf
       -0.033056320671196494 -0.012634998485987025
0005c0 12 24 2f 99 be a2 75 3f 2a 75 17 93 a8 c9 87 bf
       0.0052821583985372 -0.011615101803665501
0005d0 87 72 34 5d 2b d9 a0 3f 0d f3 06 38 4d 1e 65 bf
       0.032906870963619154 -0.0025779255085737252
0005e0 9e 52 b8 08 f4 ba 8e bf f2 8c 94 09 8c 8a 98 3f
       -0.015005022541154486 0.023966014942868825
0005f0 27 6c 8e 80 de 5a 70 3f b2 4c c9 03 8c 6d 4e bf
       0.00399290957366375 -0.0009285863557785461
000600 43 d7 e3 4e f2 58 71 3f f1 8a 06 f6 b7 b1 9f bf
       0.004235216633096619 -0.03095138014908633
000610 80 ce 92 a5 3a b5 87 3f da 7c 5a bf 72 46 8c 3f
       0.011576135805035692 0.013806244339603802
000620 de 2b ba df e1 61 87 3f 20 59 4a 4e b1 66 92 3f
       0.011417164459336545 0.017969866183727423
000630 72 7d 22 b9 79 94 7f bf 33 c3 23 a0 7a 33 90 3f
       -0.007709956628019087 0.01582137682356972
000640 f0 7e ce 2d e4 a4 a8 3f b2 f6 cc 12 47 36 a0 bf
       0.04813302096522232 -0.0316641054582595
000650 77 d1 ee b1 a1 eb 94 3f 94 ed 63 95 14 be 92 3f
       0.020430113301431043 0.01830322419935511
000660 69 8e f6 96 ec e5 12 bf f1 aa 73 ed b6 ec 88 bf
       -7.209068802765398e-05 -0.012170247193770108
000670 67 82 fa 6c 82 9d 92 3f 30 a2 f4 37 64 45 a5 3f
       0.018178975965044943 0.041545039968984177
000680 80 c3 ec 61 9c 04 9c bf 15 03 63 14 fc df 6b bf
       -0.027361339070185675 -0.0034027026586901468
000690 64 e8 a4 fe 53 35 95 bf 7c b1 ff a2 96 d7 7f bf
       -0.020711243073698773 -0.007773960518516861
0006a0 52 e7 ab de b2 25 92 3f 9e 6a 11 cc c3 97 9a bf
       0.017721934166707705 -0.02596956189186505
0006b0 97 b8 73 c0 ab 1f 94 bf 20 b8 0f 01 78 39 7b 3f
       -0.01965206491598134 0.006646603361316422
0006c0 ea a6 13 d1 98 c2 ab 3f 1b 0c d4 4e fa 12 8f 3f
       0.05421903183180439 0.015172915964745617
0006d0 28 bc 86 b4 b2 8c 98 bf c2 aa 05 20 33 87 86 bf
       -0.023974220531894158 -0.011000060477006971
0006e0 7b 6b ad 47 ac 7d 99 3f 82 da d0 fc a4 5a a7 bf
       0.0248934668301035 -0.04561343752032078
0006f0 f6 f2 ab 70 a0 d9 6c bf 50 c1 29 0a d2 41 a0 bf
       -0.0035217412563482943 -0.03175217031537392
000700 c7 e5 66 57 52 d0 a2 bf 1a 9f 60 7f c1 ad 7e 3f
       -0.036745618027861186 0.007489925241351414
000710 f9 b0 18 75 28 12 4b 3f 86 fc 26 3d 01 c8 82 3f
       0.0008261392160356088 0.009170541456908998
000720 77 ce ff cb 7a 7b 9f bf 4a 53 fa d4 58 67 8b 3f
       -0.030744475079656355 0.01338071250874297
000730 fe 54 49 9c 9b c1 97 3f b8 cf df 33 dc 9d 91 3f
       0.02319949284931954 0.0172037512456453
000740 f4 b8 08 ce 85 70 92 3f f9 42 ad 7a 7a ba 90 3f
       0.01800736494095019 0.01633635877380166
000750 13 48 8a 6c 14 64 88 3f 2b 15 ee 2b 13 fe 70 3f
       0.011909637033827669 0.004148554696148647
000760 63 1b d8 48 56 eb 96 bf 95 ee bd 73 0b 8c a1 3f
       -0.02238211459737317 0.03427158153405433
000770 16 43 48 23 ce 44 a4 bf a4 4f 92 15 dd b4 aa 3f
       -0.03958744221393411 0.05216112984012902
000780 80 8b 51 f0 6b 44 9a bf e8 72 3b 07 e3 00 87 3f
       -0.02565163282669003 0.011232160242280867
000790 65 02 c6 81 94 14 93 bf 24 5d 25 fa ed 46 81 bf
       -0.018633194370979562 -0.008436068722103736
0007a0 68 45 74 a4 ca 8f 9a bf 6a ae 48 65 04 f5 6e bf
       -0.025939146316038914 -0.0037789426662778085
0007b0 f7 be 44 ff 24 81 6e bf f8 a7 87 17 40 a2 74 3f
       -0.0037236902809566447 0.005037546500242122
0007c0 22 c4 45 f2 c8 86 99 bf 44 7e d4 79 d8 61 60 3f
       -0.024928226267949445 0.001999781422128229
0007d0 c4 9d 8e 0c f6 d4 83 3f 15 cb c2 60 47 1e 98 bf
       0.009683534868442652 -0.023553004532639827
0007e0 97 2e fc 76 a3 07 a3 bf 75 ce 57 f8 32 7d 62 3f
       -0.03716765239195501 0.0022569652089659505
0007f0 3f f6 aa 1c 87 8e a3 bf 06 85 e2 aa 44 4c 91 bf
       -0.03819677567433332 -0.016892502717955636

main.6.weight f8 [48]
000000 7c 86 ad 9a d4 26 ef 3f 0b 58 fc 18 a6 78 f0 3f
       0.973490049462455 1.029455278015578
000010 36 a8 a6 e9 d1 46 f0 3f 03 ca 00 6d 1b 01 f0 3f
       1.017290032099948 1.0002702958996685
000020 37 7d 4b 5b 72 0d f0 3f 12 8f 74 8c 2b 90 ef 3f
       1.0032828870969988 0.986348890616201
000030 49 12 b4 90 6d 30 f0 3f 81 45 81 11 bf 68 ef 3f
       1.0118232395626754 0.9815364210027583
000040 b8 36 2b 11 a3 52 ef 3f 3a 5c 31 c6 b9 ce ef 3f
       0.978837522061176 0.9939850684121503
000050 90 0b 67 ac cc 60 f0 3f 33 fe e6 d0 d4 2c f0 3f
       1.0236326918099827 1.0109451446768503
000060 96 b9 b8 e9 36 f3 ef 3f 5e 04 ba ed ac 10 f0 3f
       0.9984392704844136 1.004071167583127
000070 c8 b7 9b 63 17 79 ee 3f 85 6c 02 69 6e 76 ef 3f
       0.9522816606020053 0.9832069445577792
000080 bb 48 82 07 9e 2f ef 3f cf 4a 70 3e 10 b6 ef 3f
       0.9745626589449538 0.9909745425705639
000090 13 84 46 95 d1 ec ef 3f c5 22 0b bc 4a fc ee 3f
       0.9976585307632625 0.9682973549580188
0000a0 fc f8 c9 1c f5 3a f0 3f 90 c2 8d 58 32 6f f0 3f
       1.014393913704736 1.0271476229792462
0000b0 08 b4 ae 86 0b 95 ef 3f be 02 e8 ef 4c 0b f0 3f
       0.9869439726368237 1.0027589198436284
0000c0 f7 21 22 38 a7 a1 ef 3f eb a9 66 4d 84 23 f0 3f
       0.9884830566743962 1.0086710952260727
0000d0 68 b3 f6 d4 45 d5 f0 3f db a7 b8 72 fa 8b ef 3f
       1.0520685500043445 0.9858371964121447
0000e0 e6 f3 7a 3e 05 8e ee 3f 7f 28 59 a0 45 81 ef 3f
       0.9548364849393891 0.9845302707483511
0000f0 b2 df 9e 00 51 63 f0 3f b5 16 b0 75 d1 cf ee 3f
       1.0242471718065471 0.9628684328642608
000100 eb 36 e1 34 01 a1 ef 3f ff f4 40 f5 d3 7b ef 3f
       0.9884038956458573 0.9838657178985669
000110 8c f3 cf 4f 87 13 f0 3f 03 4b fc 5d 20 15 f0 3f
       1.004767715231739 1.0051578208264693
000120 3b 8e 11 47 31 7b f0 3f 33 2a 53 17 b1 65 f0 3f
       1.0300762916675825 1.0248270903708885
000130 5c 0b 48 d4 cb 6a f0 3f 05 0d 79 ca fa 1f f0 3f
       1.0260732929461573 1.0078075322242637
000140 9a 73 62 22 00 ba f0 3f 2f 3f b9 c4 5f d3 f0 3f
       1.045410284342529 1.051605003787653
000150 1c 97 29 68 91 2e f0 3f e5 fe 0d 7f 3c 34 f0 3f
       1.011369139561288 1.0127530062745163
000160 11 5e 1b c5 68 0d f0 3f 42 44 5c 26 31 87 f0 3f
       1.0032737445343438 1.0330058573201915
000170 b1 86 24 75 e8 f7 ee 3f 6b 14 1c b6 4a 8b ef 3f
       0.9677622116034482 0.9857533985929313
